ModelLBFGS.tar (torch, 652591 bytes, 64 tensors)

layers.0.weight f8 [20, 2]
000000 b9 0d 36 19 39 56 e7 3f f5 76 00 5e 7d 10 de 3f
       0.729275273552438 0.4697564523684002
000010 3d 27 9f bc b0 ad c4 bf a4 cd 80 3b 1d 11 b3 bf
       -0.16155060968440607 -0.07447989180291487
000020 d8 6a 61 60 6e 74 c3 bf 14 73 b5 4d cb 0a d3 bf
       -0.1519906969650353 -0.2975338229060054
000030 a6 70 80 f9 18 b3 d2 3f 25 e3 65 53 e9 be b1 3f
       0.29218124738123163 0.06931932722171703
000040 67 5a c2 41 b6 ef c4 3f 26 f1 f6 54 2e 4d a9 3f
       0.1635654278840832 0.04941696917691933
000050 67 09 9b 1e 20 bf d9 3f 05 8e 2b 92 47 b3 b7 3f
       0.4022903727419788 0.09257933920485335
000060 3e d1 5d 65 a5 e8 da 3f 40 cf cb a8 90 91 d5 3f
       0.42044958972043733 0.33700958713528806
000070 03 e3 58 6b c3 ba e3 bf 59 6f df 61 b3 71 c0 3f
       -0.6165482613206169 0.12846987036652527
000080 03 4a ef 6a 78 3a 8d 3f 7d 97 70 f7 25 94 eb bf
       0.014271679652584806 -0.8618345101174182
000090 53 ba 92 78 3e 9b d1 bf 0b 22 a4 1e 24 45 c1 3f
       -0.275100343463156 0.1349225186934436
0000a0 38 70 bc ad 8e 16 d4 3f c6 47 24 0f 59 47 c7 bf
       0.31387679068007257 -0.18186486472455793
0000b0 fa 55 ac 64 2b 7e d9 bf d9 26 be e6 30 3a b8 3f
       -0.398325775445613 0.09463792451256427
0000c0 c4 da 3d ea eb 78 d0 3f 81 e8 11 fc 7c 28 aa 3f
       0.2573804652705969 0.05109015061403089
0000d0 af 46 d6 c8 50 21 d7 bf dc 91 b1 47 c0 7c c6 bf
       -0.361408420686625 -0.17568210125604267
0000e0 91 5a 19 ea f8 7a d7 3f 91 09 e5 3d 50 fb d5 3f
       0.36688063489183614 0.34346395534898827
0000f0 e9 76 0d 45 8d 19 d8 bf 18 c0 75 a4 e6 c7 d2 3f
       -0.3765595602361445 0.29345098553221893
000100 60 a5 b2 f9 75 22 de bf bf a5 94 e3 04 2b d2 3f
       -0.4708533228354863 0.2838756773440671
000110 35 b8 33 97 5f b7 d0 bf 25 31 1d cb 3f 07 ba bf
       -0.2611922241766281 -0.10167311390722895
000120 21 5f fc ec 9d 0c c5 bf da e6 fe f4 57 ab f0 3f
       -0.16444753715108454 1.041831929220669
000130 71 ca e1 ae e1 97 c9 bf 43 fe 38 f5 be 94 e1 3f
       -0.19994755782279897 0.5494074620728003

layers.0.bias f8 [20]
000000 61 f6 00 2e e8 ca db bf 27 ef 4e f8 9c 9f 88 3f
       -0.43425945751719125 0.01202318794991404
000010 60 1f 1a 1b bd 07 a9 3f e7 e4 6b 88 9d ba aa 3f
       0.04888716655574288 0.052205012228975715
000020 b3 16 89 11 58 92 b6 bf b4 ad a0 c6 4e 4f 96 bf
       -0.0881705324946676 -0.021786909936208423
000030 0e 42 a2 27 cf be 90 3f 04 f9 26 52 fe a4 dc bf
       0.016352879327827856 -0.44757040045432483
000040 f5 55 a7 d3 d5 d5 d2 bf bf 09 cc 81 38 bc c3 bf
       -0.29430146855642586 -0.154181540849164
000050 8e 53 60 9e 68 a2 bb 3f a6 1f 66 86 ca 8a 62 bf
       0.10794690958603168 -0.0022634463850330242
000060 39 6d d2 85 6a 54 cb bf 6a 60 f7 b2 84 13 9c bf
       -0.21351367506290744 -0.027418206618535036
000070 6d 54 a6 2d d7 db da bf 4b 7c 2a c7 09 d8 b6 bf
       -0.41966800172787694 -0.08923398125124142
000080 7e 7f 22 af 53 b9 85 3f 2c ca 70 8c 20 7f d6 3f
       0.010607389242352157 0.35150922503376836
000090 b7 40 b4 8b 56 0e c8 3f 7f 51 a5 f8 74 ca ab bf
       0.18793756314744822 -0.054278998710887365

layers.1.weight f8 [20, 20]
000000 4f 49 44 54 ce 41 dc 3f 78 9e 31 0c 59 53 b2 3f
       0.4415164778630655 0.07158428714466847
000010 c6 11 5f 7c 10 84 d1 bf 32 65 46 ae 11 5d ad bf
       -0.27368557115212544 -0.05735068561916491
000020 96 7f b5 b6 3d 26 bd 3f 4f 93 27 7d 66 56 a0 3f
       0.11386476240795526 0.03190918233648309
000030 af 41 86 63 b0 a3 94 bf 20 39 bd a6 83 17 d1 bf
       -0.020155674051751834 -0.2670601967155495
000040 fa 51 c6 36 f6 a3 b4 bf a7 b1 75 ac 69 5a 7d bf
       -0.0806268581130282 -0.007166302478577447
000050 47 18 61 98 3d 11 a5 bf d9 a1 61 e3 f5 2a d4 3f
       -0.041147160387979435 0.31512210087978826
000060 f6 3e 0b e0 e2 d7 b5 3f 7f 1d c3 64 04 68 e0 bf
       0.08532541246244904 -0.5126974075327978
000070 b2 7d fb 44 d4 6b c4 3f 07 d4 8c 59 64 64 c1 bf
       0.15954068535118676 -0.1358762204414747
000080 b6 a0 6b c6 a3 a0 c1 bf 9c 51 09 74 75 be e1 bf
       -0.13771483601090545 -0.5544993654571502
000090 58 9a 89 af 1c af b5 3f c4 fa cb 2a d1 6e 92 3f
       0.08470324788650296 0.018000858533009603
0000a0 95 d4 ee b6 7e 1b dd bf 9b ec 33 d6 05 b7 c1 bf
       -0.4548031603292853 -0.13839791258928788
0000b0 c5 d3 5e 11 a5 da 61 bf 1c f8 a5 78 a8 de d9 3f
       -0.0021794532758243356 0.40421497137129037
0000c0 28 b8 38 47 d0 9c d7 bf 7b fa d0 d9 96 60 ad 3f
       -0.36894614176969975 0.05737754258051538
0000d0 a5 b7 ee 28 b6 e6 c0 bf 96 ac 50 75 c5 df be bf
       -0.13204075812012409 -0.12060197939051628
0000e0 b1 33 1e 60 7b f3 bd 3f 73 0f 6c fd ed 46 71 bf
       0.11699648949270515 -0.004218034408726245
0000f0 f2 0e 95 60 1f ed d9 3f 1c 95 28 10 0b 4d b4 bf
       0.40509781295644054 -0.07930058617110486
000100 4a 69 52 1c d6 ad ca bf cc 38 3e f5 1e e7 bc 3f
       -0.20843006499201017 0.11290162551287891
000110 ce af 9d ba 32 80 a0 bf 8b e2 17 8c de 09 ae 3f
       -0.03222807434107687 0.058669046975357984
000120 4a 32 57 b6 a5 91 c3 3f f7 d3 11 79 eb 15 d2 bf
       0.15288230326986457 -0.28258787940222824
000130 a3 9a e9 97 78 cc b2 bf 3a 4b f3 90 99 4d a5 3f
       -0.07343248089601188 0.041607665008675146
000140 e9 d7 0f 34 1d a6 b3 3f 1c d2 13 a3 6b 58 ba 3f
       0.07675344964067644 0.10291168910391274
000150 c8 dd 64 08 4c 86 b9 3f 4f ce 7e fa 0a 79 c0 3f
       0.09970545964176047 0.1286939356920009
000160 cf a1 cf 82 14 c4 c7 3f 37 5b 8f f8 20 fa db 3f
       0.1856713904119389 0.43714164994655696
000170 3f b4 76 56 30 00 e4 3f c6 15 4b 0b 44 63 bf 3f
       0.6250230492347625 0.12260842586245876
000180 1a ce c1 f1 04 c0 d8 bf d4 74 6e 86 77 fb c6 3f
       -0.3867199288281157 0.179549160614363
000190 1c d3 b9 95 5c 9e cf bf b4 de b1 ec de a5 ca bf
       -0.24702031431993354 -0.2081869750725126
0001a0 d4 c8 c7 7c a7 34 d3 3f 54 ec 53 cb 26 14 a9 3f
       0.30008876023852094 0.048981869049349896
0001b0 15 6e 2f ba 45 6d d6 3f 44 88 4d 7c 4f c4 b0 3f
       0.35041945631175625 0.06549546036470227
0001c0 24 40 8c 6c be 38 bc 3f 56 0d 35 53 03 05 d6 3f
       0.11024084234327397 0.3440559685297634
0001d0 4c 83 56 0f 16 99 d9 3f 0f f2 12 3e 3e cb aa bf
       0.39996863839956087 -0.052331872060197175
0001e0 10 f5 8a e4 6a 14 d5 bf 2e c3 df f5 e9 06 d5 3f
       -0.3293711883414554 0.3285469914545044
0001f0 66 2f 44 9e ad 49 d0 3f 1b 5d 1d 85 4b 90 d0 bf
       0.2544969602174575 -0.25880706786615953
000200 ed d8 3f eb 2b 54 b9 bf f4 22 52 af 78 b1 e3 bf
       -0.09894060605424544 -0.6154139923320074
000210 70 1a 1c 64 b3 a2 d8 bf 15 45 20 47 30 d0 bb bf
       -0.38493046547265575 -0.10864545570827418
000220 30 05 9e ba 0a 90 c3 bf f3 11 e2 04 60 e3 c7 bf
       -0.15283331024333213 -0.18662643660003617
000230 d5 92 89 d7 6f 8b cc bf 10 aa 1c c4 bd 80 da 3f
       -0.22300527595793676 0.41410774375495496
000240 ea c4 00 82 d6 c9 d9 bf a0 e6 a3 27 d2 8a a0 3f
       -0.40294420905691075 0.03230911954774496
000250 e5 9d 89 db 6e 4a c9 bf 47 9e 54 e3 b3 23 ad bf
       -0.19758401603324596 -0.05691301488905914
000260 e4 14 2b eb 5a 4d b5 bf cc fa 0b 9f bb e7 d1 3f
       -0.08321159593022603 0.27976885349191316
000270 89 23 5c 52 84 f1 c5 bf 77 ea 13 51 f0 11 c1 bf
       -0.17143301030617078 -0.13335994681240823
000280 46 6d a4 57 01 7f c8 bf d4 14 43 6d 34 e8 c5 3f
       -0.19137589244278724 0.17114882788715724
000290 36 24 a0 96 9f 82 b4 3f 9e 4b d4 87 b3 ba b4 3f
       0.08011815478688863 0.08097383562225821
0002a0 7f 93 81 12 9a aa d2 bf e7 c4 a3 cc 5c cb cf 3f
       -0.2916627102588833 0.24839363090681063
0002b0 b5 b7 e0 bc b0 7e d4 bf 5f 98 fc 6c 86 f1 9b bf
       -0.3202325672635838 -0.027288532640476478
0002c0 be 9c 1b 54 d8 7f d4 3f dd 8a 61 e3 ef 27 af bf
       0.3203030415883851 -0.06085157061240463
0002d0 40 82 23 7e 72 27 b9 3f df fb 5b 63 8d 03 9d bf
       0.09825816707189805 -0.02833386343899835
0002e0 0b f1 32 e4 fe cb c3 bf 0a 7d f8 bd 47 6f c4 3f
       -0.1546629537823566 0.15964600349341423
0002f0 01 38 79 7d 59 3d d6 bf 71 d3 1a 4e 30 8a be bf
       -0.34749448064110317 -0.11929609209876248
000300 6b ed ef c0 40 6f cf 3f f7 69 72 b4 a4 08 e2 3f
       0.24558267040979884 0.563555099902543
000310 e3 8b 31 51 0a 7b b7 bf ef 0c bd 7c 70 03 d0 bf
       -0.09172119600547961 -0.2502099245213704
000320 a5 15 fe 4a ac ad d2 bf 20 75 87 3b 12 c4 b3 bf
       -0.2918501598690802 -0.07721055940006183
000330 a5 32 92 00 3a 9d b8 bf d3 ad 6a 3e af ae d9 3f
       -0.09614908708517562 0.40128689856893834
000340 92 53 36 8f 31 44 98 3f f1 40 be ab f8 f1 84 3f
       0.023697637907008913 0.010227148762880197
000350 e4 44 a4 58 ab 49 ca 3f 18 88 76 66 8c 5f 9f bf
       0.20537320926863523 -0.030637925866933896
000360 38 53 38 ee 1d 1c c7 3f 4a 23 96 6e a9 f6 a6 bf
       0.18054556018673806 -0.04485063052113121
000370 5a de 17 90 0d 19 d8 3f be 2e 7c 28 19 43 b1 3f
       0.3765291125450624 0.06743008840947604
000380 0b 61 07 84 8b 3d cd 3f 3e 31 0a 78 e9 09 c0 bf
       0.22844070383758494 -0.1253024898654846
000390 b5 1f 56 8e e7 b4 a0 bf 63 72 3e b2 ff d0 b1 bf
       -0.03263019192223685 -0.06959531881006735
0003a0 31 bc cb 8d 1c 5a ca bf 3f af b9 cf ca 49 a5 3f
       -0.20587498592019096 0.04157861505231474
0003b0 24 f4 ec 06 9d e5 d2 bf 6e 1e 79 94 e8 86 d6 bf
       -0.29526448894813684 -0.3519841623242205
0003c0 87 fb 2d b3 ea 4d d4 3f aa 23 6b 14 1e a9 a5 3f
       0.3172556638527841 0.042305889122480636
0003d0 e1 a2 2e 81 15 82 af 3f ad df d9 46 86 6a d4 bf
       0.061539337176616866 -0.31900174063729986
0003e0 0b 8f 23 3d 29 15 c8 bf 38 d4 a2 c5 2d 4a b4 bf
       -0.18814578519151612 -0.07925687861536879
0003f0 d6 24 d4 a0 20 49 92 bf c8 c2 46 6f e6 2d c5 3f
       -0.01785708409901051 0.16546326096933783
000400 5a e8 a7 7f d8 c2 cc bf 61 7e 58 0b 29 7e 96 3f
       -0.22469621880719864 0.021965638463483098
000410 53 71 d7 6f 71 4f a3 bf 41 3d fa 2a fe 95 8d 3f
       -0.03771547785047127 0.014446244894570472
000420 bb 37 63 6d 0f e5 cc bf 0e 08 d7 7b 1a b0 b9 bf
       -0.22574036446752452 -0.1003433754295033
000430 85 8c ac f7 9d 2a 61 3f e4 58 ac 13 56 88 ae bf
       0.002095516710498626 -0.0596339129462409
000440 51 ed f9 f2 70 36 db 3f af 8d c8 83 46 01 e0 3f
       0.4251978276076516 0.5001556943793072
000450 12 31 5f 55 ab ac da bf 62 6d 67 1b a4 a2 b9 3f
       -0.4167888959607505 0.1001379553703621
000460 48 8d d3 34 d3 5e c4 3f ac a8 4a 3f da d9 da bf
       0.15914383010304278 -0.41954666310142374
000470 77 9f 46 8b 60 08 95 bf a1 b3 3c 67 bc 2b d2 bf
       -0.020539768696522267 -0.2839194305586777
000480 af 57 ef 88 ee 0a b2 bf 15 9a 36 3d ff 9b c8 3f
       -0.07047930567872983 0.19226065148286922
000490 03 c7 bf 1d 53 0e c4 3f 5b b3 12 3f 38 ad b9 bf
       0.1566871543178011 -0.10029937305325858
0004a0 ca 69 44 46 72 43 bf 3f 3a 42 a0 75 ba 49 df bf
       0.12212290015705843 -0.48887502180972187
0004b0 a0 6d 9a 18 61 ca bd bf 1b 97 d3 30 83 6b d4 3f
       -0.11636931276955531 0.31906204002585675
0004c0 11 19 12 0e ca 45 e3 3f 85 22 8a 45 91 f2 dd bf
       0.6022691988771688 -0.467930143270259
0004d0 30 64 f7 9e fa 55 e3 3f 41 c3 b4 d1 3d e4 d0 3f
       0.6042454819499934 0.2639307544623542
0004e0 c2 18 7e be 92 fe bb 3f c1 a3 ab 15 1e 09 a4 3f
       0.10935322905251879 0.03913206114322732
0004f0 0f 52 7f c9 bf 98 b1 bf 14 36 f3 fe 23 e1 b8 bf
       -0.06873701733940883 -0.09718537306181246
000500 9e d2 3c 9a 08 3f d0 3f b2 6d 60 29 3b 66 cc bf
       0.2538472658373311 -0.2218698455843487
000510 c1 23 59 16 97 03 c9 3f 0c 8a 82 42 65 7a b5 3f
       0.1954220637437896 0.08389885782029455
000520 81 f4 7e bb 9f d2 bf bf 3e 41 87 41 11 eb db 3f
       -0.12430761649643964 0.43622237586261636
000530 10 98 84 3e 6f b9 ba bf 4b 7c 80 05 79 92 c0 bf
       -0.10439200664822601 -0.12946999329230588
000540 e5 83 be 49 88 f4 c0 bf 00 72 a1 3e 20 a2 b9 bf
       -0.13246253586569803 -0.10013009575909138
000550 c7 13 86 bb 46 0c da 3f b4 3a 51 a2 61 ea c7 bf
       0.4069992858206288 -0.18684025216722022
000560 f1 73 e0 5b 73 da ac bf 47 f0 d5 25 c2 4a be bf
       -0.05635414597075073 -0.11832822250102125
000570 f1 c9 0a 16 2f 5e a0 bf cd 2c 73 28 2a e6 bb bf
       -0.031968566361132995 -0.10898078429743237
000580 4d 39 63 21 34 3f d3 bf 81 9c fb 32 49 61 b1 bf
       -0.30073264370448244 -0.06789071554850247
000590 6d f1 77 8c 4b 64 75 3f d5 a7 13 35 83 cc 6e 3f
       0.005222601997499116 0.003759628547972386
0005a0 5f 85 90 8e c9 bd d1 bf 71 bf d6 6d 34 58 b1 3f
       -0.2772086994392193 0.06775214845288048
0005b0 ac 2d f4 f1 b8 2f de bf 1e 08 e3 9d a2 a4 d1 bf
       -0.47166274669936104 -0.2756735364783952
0005c0 32 2c 7c 59 a3 26 c9 bf 5f d8 3b 98 29 a1 c5 bf
       -0.19649164075267006 -0.16898078854837004
0005d0 09 3f 87 34 2e 73 d2 bf ec ba 80 99 ba 8b b3 bf
       -0.2882800591441855 -0.0763508438837836
0005e0 34 9d 55 4e e7 d9 d6 bf c6 b4 e4 48 b7 30 ab 3f
       -0.35704977655264547 0.053106048248403634
0005f0 a8 c6 f4 93 cf 34 cc bf cc bb fb 37 97 8d d1 bf
       -0.2203616592828912 -0.2742670103752374
000600 8d 81 06 bd ca 0a c6 bf 6b fe 75 84 50 76 c2 3f
       -0.172204344079557 0.1442356726438335
000610 09 9d 7e 10 be b7 b5 3f 93 1d 59 f3 17 5b c1 bf
       0.08483493712138936 -0.13559245474082768
000620 94 4e 0e 40 e8 e7 d4 3f 07 33 70 ac bc 84 da bf
       0.3266544938607947 -0.4143516239135327
000630 0a 15 2a dc ef d8 82 bf 70 0d c6 89 51 89 c5 3f
       -0.009202836901077056 0.16825312831143036
000640 ef 22 b7 3a 7a a1 d9 3f 33 e1 91 6e cd 79 d2 3f
       0.4004808019058563 0.28868423269115623
000650 4d 22 07 4b c9 f8 a1 3f f2 ce cf 59 20 54 bb 3f
       0.035101213844943226 0.10675241654081072
000660 c6 91 9a 5d a6 5d b6 bf aa 2f 47 8f 42 4d 98 bf
       -0.08736648354767515 -0.023732223505973295
000670 d6 28 45 cc 1a 70 b1 3f 7e 74 b6 ff e6 99 c7 3f
       0.06811683165611568 0.18438422666523374
000680 34 42 4a 55 26 5c e5 bf 60 97 1b f4 79 08 c7 bf
       -0.6674987474271519 -0.17994617862057805
000690 a6 9c 36 c4 8e 42 c9 bf da 35 03 60 6f 59 bc 3f
       -0.197343679244317 0.11073967069679416
0006a0 90 eb 9e 02 02 ef c9 bf a8 5b 77 eb 6d 2c d4 bf
       -0.20260644081085077 -0.3152117537951491
0006b0 8b 4f d7 6b 8f 89 d4 bf 4b da 28 ff 21 c5 c1 3f
       -0.3208960106978728 0.13882851561511908
0006c0 ab e6 b7 f2 a1 c1 a0 3f 87 44 e7 7e 30 d9 cd 3f
       0.032727299574572065 0.2331905955930191
0006d0 12 c4 00 5d fe 04 d9 3f 01 2f e6 87 be af de 3f
       0.39092978555987756 0.47947657843972996
0006e0 71 b0 ea 8a 6d 17 b3 3f db 74 9b e0 c9 c0 97 bf
       0.07457623139879545 -0.023196367582262716
0006f0 66 21 3b af db c6 c9 3f 16 dd 49 df d4 1a cb 3f
       0.20138116890144458 0.21175633337745897
000700 1e 05 cb 2b 70 16 c1 bf 7b 11 5b 02 22 28 b5 3f
       -0.13349725855190625 0.08264362866890977
000710 58 35 03 f0 1f 93 d0 3f b4 72 98 0b 59 b4 d5 3f
       0.25897978247379205 0.33913255817769117
000720 27 c4 bf 90 2d 12 a4 bf 68 91 e6 42 2a 0c d0 bf
       -0.03920118705708147 -0.25074249776141366
000730 2e 55 cd b5 0b 05 ac bf 8e c8 a9 69 f3 6f d2 bf
       -0.05472599596275028 -0.2880829364650105
000740 e5 57 f4 70 3b f1 a2 3f 59 b7 b3 87 78 ab bd 3f
       0.036996705568682654 0.11589768708264837
000750 2d 92 b3 b9 cf 92 84 bf 67 7f dd 3c 74 ce d2 bf
       -0.010045645575197682 -0.29385095542783407
000760 eb 23 0d 12 23 ea b3 3f d4 e9 a9 74 7a fa cd bf
       0.07779139700609476 -0.23420649239035518
000770 92 44 52 67 14 a0 de bf f5 d1 96 e1 e7 16 d0 bf
       -0.4785204895970959 -0.25139805822553224
000780 2a 01 c5 ea 7c d9 bf bf aa fe 2b b9 d5 a2 c1 bf
       -0.12441235286405986 -0.1377818254622885
000790 ac 83 56 8b df e4 d2 bf c9 c6 e1 62 7a 82 b2 bf
       -0.29521931273671487 -0.07230343736753321
0007a0 07 36 8e f8 3c 34 b0 3f 9b ff b4 35 2f 83 b0 3f
       0.06329709118127634 0.0645017152901332
0007b0 70 3b a2 49 53 ef 9b 3f 49 6c 97 bd 71 d8 d2 bf
       0.027280141228910038 -0.2944607116202787
0007c0 ce 7d cc 9d 4d fd 99 bf 8f 64 a7 b6 c5 b5 c7 bf
       -0.02538033748271378 -0.18523475092550654
0007d0 b9 43 d3 90 6b aa a7 3f 13 3a c3 51 61 63 d1 bf
       0.04622207777868632 -0.27169068321828255
0007e0 37 26 67 f6 ce ff 7e bf d2 f3 a0 d2 9c 80 d4 3f
       -0.007568176696119581 0.320349889461622
0007f0 c8 c3 bc 31 32 1b 9d 3f 74 31 b8 21 72 20 b4 3f
       0.028424057279327092 0.07862008403043835

layers.1.bias f8 [20]
000000 d0 b6 92 d9 3e ad cd bf 6b a3 7e 89 72 27 af 3f
       -0.2318495333069479 0.06084783485795849
000010 b0 b8 0e 39 d6 16 62 3f 3d f8 fb 69 b4 e6 cf 3f
       0.0022081550636903965 0.2492280499936345
000020 96 07 83 aa 4d d2 a1 3f cd e8 c7 51 3c 9b c7 3f
       0.03480761248057644 0.18442491524894536
000030 46 1e 10 e3 45 a6 96 3f e1 4b 82 b7 e0 1c b3 bf
       0.02211865614302002 -0.07465939026069136
000040 f8 74 6d d2 68 75 aa 3f 8d ab 2f 13 ec fb c3 bf
       0.05167701309867739 -0.1561255544359849
000050 76 13 61 11 d0 8f c8 3f c1 41 8a d0 f7 f5 ce bf
       0.1918888172969237 -0.24188134844417955
000060 87 7a 62 38 dc cd bf 3f 08 f8 da c8 13 b7 b4 bf
       0.12423492790774492 -0.08091853765196799
000070 8e bd 9e cd e6 20 b9 3f 06 73 eb e7 e5 42 c3 3f
       0.09815828819295389 0.1504790670795943
000080 e9 34 c7 bb 31 af ad 3f 3a 39 2b 0e 2c bb be bf
       0.05797725121701964 -0.12004351945799821
000090 6c de bd ec 4b a6 da bf e2 17 c3 f8 bf d8 c2 bf
       -0.416399937813799 -0.14723968168817608

layers.2.weight f8 [20, 20]
000000 8f a1 46 30 b0 4e a4 bf ee 66 af a2 e4 46 df 3f
       -0.03966284360223248 0.48870197188590125
000010 72 92 aa 54 20 12 c9 3f 10 db 5e 31 c0 53 aa 3f
       0.19586567052933251 0.05142021753947834
000020 53 5e 80 a5 1d 3c b3 3f bf b1 ae 7f c5 17 67 3f
       0.07513604441225512 0.0028189523122447986
000030 46 76 ed 59 f6 2f cb bf d2 64 09 0e e2 da d7 bf
       -0.21240119353289993 -0.37273455973406755
000040 f6 0f d9 9e 91 8a cc 3f 73 78 8b 58 4c ff 8e 3f
       0.22297878509755237 0.015135380222485595
000050 c6 45 f4 78 e4 96 d1 3f 11 e2 4c 55 35 d1 cc bf
       0.2748347455209025 -0.2251345316415301
000060 75 a8 25 45 f3 25 cd bf 2f f3 94 2d 0f c5 bb 3f
       -0.22772065044711423 0.10847563612783227
000070 8a 23 01 5f 2f 65 c2 3f 8a 1f db 4d 81 de c2 3f
       0.1437129224671277 0.14741531659660395
000080 1e 4e 8e ef b0 eb e3 bf 2f 66 88 79 1f 12 97 bf
       -0.6225208929849406 -0.022530071060918807
000090 bb 9e b3 dd cf 61 b0 bf c7 2e a1 77 1e 2e c4 3f
       -0.06399249231946673 0.15765744057931938
0000a0 50 fc db 45 17 bf 89 bf 72 8c d3 84 3b 9e c6 bf
       -0.012571508235394685 -0.1767038725439281
0000b0 04 f1 32 6f 34 94 c8 3f 7b 51 c9 ef fc ad d0 bf
       0.19202285222662152 -0.2606193868316706
0000c0 76 2f 16 6b 9c 7b d6 bf 9a 40 39 70 60 9d c8 3f
       -0.3512946172493153 0.19230275611562747
0000d0 94 9f 42 18 0a f2 bb bf 38 78 4e f6 a7 bf d5 3f
       -0.10916197864810179 0.3398227601372841
0000e0 47 b3 fd c6 12 46 e6 3f 18 23 5f 30 56 ea ce bf
       0.6960538755934998 -0.2415263878049465
0000f0 44 e2 04 b3 76 5d cf bf 94 1e 8c b6 be a1 b6 bf
       -0.2450397848240461 -0.08840553242418486
000100 1b 28 0e 28 97 b2 ca bf 9c ba 1b 9a 48 7c c5 bf
       -0.20857514816117448 -0.16785533451862455
000110 33 57 dc 09 f6 10 ce 3f a7 af 8c a8 83 e5 ae bf
       0.23489261132697833 -0.060344805073639755
000120 21 a5 7a d4 52 81 a2 3f f3 cd 89 a4 84 af c8 3f
       0.03614291042078777 0.19285638841721173
000130 25 b0 0e 8c ee 94 9a 3f 86 91 9d 11 2d 89 d3 3f
       0.025958754824088843 0.305247561648024
000140 84 36 a7 27 8f d5 de bf 04 fb 15 86 43 b0 be 3f
       -0.4817846190679591 0.11987707160549738
000150 db 66 de 37 28 8c ca 3f 2b 30 70 cc e7 16 e1 3f
       0.2074022553249993 0.5340460770544316
000160 bc cd 07 52 aa bc b7 3f 3d 42 c3 f8 74 f8 ac bf
       0.09272255423257197 -0.05658307587294018
000170 da e5 a3 d2 a3 d2 cd 3f 1d 6e 21 a1 29 a8 89 bf
       0.23299072060744558 -0.012527775983634243
000180 7c 09 5a f9 af fe d2 bf 2d 19 be cf a7 ad 89 3f
       -0.2967948851657167 0.012538252856540833
000190 21 80 68 4f 14 cc ba bf 1e b2 c4 ce 5a 27 95 bf
       -0.10467650355030901 -0.02065793883336841
0001a0 96 a2 3d 33 fc 14 bc bf 57 0b 91 b5 6d 80 cf bf
       -0.10969520808215302 -0.24610682836108808
0001b0 fd e8 04 5d aa 2a da 3f 1d 8a 6b ba f4 1c ca 3f
       0.4088540943518096 0.20400866606276305
0001c0 64 b4 db 05 d5 d2 c3 bf 71 15 0e e5 17 1b b4 bf
       -0.15487158571287118 -0.07853841154254383
0001d0 24 e5 68 10 22 6a d4 bf 47 cb c5 8d 2f 7e ca 3f
       -0.3189778480769567 0.20697588369838568
0001e0 06 71 f6 c2 78 b5 9f 3f 86 18 03 57 95 1b ac 3f
       0.030965697192741913 0.05489794432792032
0001f0 2c 5a d6 fc 4d a7 c2 bf a3 4b 4d 2e 2e 8b a5 bf
       -0.14573073239871925 -0.04207748713692829
000200 2e 6b 3c 26 68 4d a1 3f 6f e7 e9 36 62 30 d5 3f
       0.03379369227169203 0.3310781036631089
000210 99 e3 3c b4 a0 ed cb 3f ad c3 26 4b da b0 d2 bf
       0.21818932343174138 -0.29204423274046115
000220 2e 0d 0c 35 bd 8b ae 3f 45 e7 ac 55 a7 8e ae bf
       0.05965987465426746 -0.05968211098520596
000230 21 20 5d 3c 2a e8 d7 3f f2 40 d0 98 e5 92 c4 bf
       0.37354522604846535 -0.16073293649288406
000240 8c 9f b0 50 f2 38 b1 3f 01 72 94 81 e8 5d b1 3f
       0.06727518529862503 0.06783917583056366
000250 91 af ed b0 53 fc bf 3f f9 d7 f2 2f 19 28 dd 3f
       0.12494395322363362 0.4555724113700986
000260 12 87 bb a4 9e 04 cb 3f 46 f0 1a 79 fe b0 bb bf
       0.2110784820898109 -0.10816946465178132
000270 f5 76 bd ca 60 1c c5 bf fd 28 24 6f 98 5f bf bf
       -0.16492853068751115 -0.12255242074403223
000280 fe 94 aa f4 17 aa df 3f c3 70 fb 88 10 33 d2 bf
       0.49475668805310125 -0.2843667352406209
000290 55 bc f4 36 e5 66 d7 3f ec 9c a1 91 2e c9 93 bf
       0.3656552349738765 -0.01932213558066291
0002a0 82 5d 46 b5 62 e6 b0 bf 2a ee 6b 68 9f 58 ab bf
       -0.06601540494590633 -0.053410512444284144
0002b0 cb 62 3f 83 f2 20 a7 bf 98 f4 28 8d dc 06 df 3f
       -0.045173243066249556 0.4847937944903804
0002c0 6c 93 4a 0a 63 53 cd bf 46 79 e9 dd ad f2 ba 3f
       -0.2291072654963061 0.1052654902245865
0002d0 39 87 d7 25 4c b1 bc 3f 31 2c 34 80 1e 7e c6 3f
       0.11208034442782101 0.17572385082198275
0002e0 6c 83 0a 67 b4 1b c7 3f 41 6e aa c7 8b c8 c3 bf
       0.18053298026373044 -0.15455767869285533
0002f0 ba 11 7b 1b 67 dc dc bf 2d 14 b3 ca e1 8b b3 3f
       -0.4509523170820803 0.07635317991942321
000300 ab 83 7f 99 f6 30 d5 bf 19 ee 0e a2 d8 6d af 3f
       -0.3311134814267073 0.06138493517161354
000310 6d fe 36 0f f2 a3 a4 bf 87 20 8c eb 0d 9a ba bf
       -0.04031330524184971 -0.10391318321865316
000320 07 ce ff 2e 4c 1b 94 bf 95 77 ac 0c ce c3 88 bf
       -0.019635382050138286 -0.01209221817185461
000330 e8 a6 ec 51 43 c4 c7 bf ac 35 21 9c de c7 d8 3f
       -0.1856769704839316 0.3871990704254482
000340 d6 11 6e e1 db c9 da bf a5 29 f7 8c 0c ea e0 bf
       -0.41857049002308366 -0.5285704377395645
000350 4c 7a 08 6a 66 ed 90 3f 66 3e f8 74 9e c1 bc bf
       0.016530609342334565 -0.11232939105706805
000360 98 48 3e a2 f6 4e d4 bf 21 f3 c7 7f e4 35 c2 bf
       -0.3173195442588024 -0.1422696708613325
000370 b9 c6 f4 b4 66 b6 c7 3f 9b ee 91 43 0f 9e b8 bf
       0.18525394283056132 -0.09616179847392418
000380 56 83 2c 5f cc 9a d0 3f 4c e1 e7 01 bc 93 ed 3e
       0.25944814009021877 1.410345435902461e-05
000390 02 08 da cc 07 c4 a7 bf 51 b9 88 dc 13 3d 87 3f
       -0.046417468792256514 0.011346964996019311
0003a0 24 be f5 66 27 85 c4 3f 98 80 63 ba 77 a6 ca 3f
       0.16031353499737222 0.20820519066819965
0003b0 df c5 2d 7b 5d 0e a7 3f 5f e4 b3 3f 94 5f d9 3f
       0.04503147247931926 0.3964586851212228
0003c0 e4 45 89 24 cb a2 d6 3f 80 d8 4e 8e 8f fa b0 3f
       0.3536861283110666 0.06632325386348903
0003d0 9a 8a 2e e8 ed 4c b3 bf 4a 7d 28 fb 2f 7a b0 bf
       -0.07539259832860026 -0.0643644321612459
0003e0 16 48 41 14 65 75 b6 3f 38 98 1a dc 4b f3 ad bf
       0.08772880310542094 -0.058496828668737455
0003f0 52 3c 74 6a e2 13 ba 3f 02 ee 86 2e 8f e4 c3 3f
       0.10186591242767065 0.1554125764067607
000400 f2 83 b2 2c c2 b6 d1 3f aa 8c 70 e8 1b e0 e0 bf
       0.27677969326947427 -0.5273570575558513
000410 cd b3 53 66 52 e1 b1 3f a3 3d f4 f2 ab f5 b9 bf
       0.06984438894478658 -0.10140490228172054
000420 be 6f 3d 78 c5 00 dc 3f 78 7e 4f ba a7 04 90 3f
       0.4375470804422966 0.01564275812768165
000430 48 3a 00 30 f3 0a bd 3f 09 1e 93 f9 98 59 d7 3f
       0.11344833299538337 0.3648436009648042
000440 fd 88 b6 38 87 b5 d7 3f d4 74 3a 93 d8 d9 dd bf
       0.37045460260755175 -0.4664212644364174
000450 28 d7 d2 ce 91 25 d3 bf a3 b8 5a 31 82 c8 a0 3f
       -0.2991680640947032 0.03277975895376641
000460 41 ad 7b 64 18 f5 d4 bf e6 a6 1f 9a b7 50 c7 3f
       -0.3274594289093394 0.1821507933194006
000470 dd 2e 61 54 cd a9 d0 bf b7 af 43 63 3c 81 c8 bf
       -0.260363895799612 -0.1914439663590863
000480 81 b2 b0 41 b7 b5 cd 3f 0b 58 81 b6 86 9b a8 bf
       0.23210802753000695 -0.04806157090995108
000490 d2 b4 bc ea 0b 95 dc bf 66 bd 18 c0 2f 3b d1 3f
       -0.4465970795016122 0.2692374587959051
0004a0 a0 42 be 73 79 6a d6 3f 51 8b 82 ba 00 5f 6f bf
       0.35024868300483014 -0.0038294805745677026
0004b0 f5 14 4f 33 74 e2 b2 3f 45 f4 5b a0 72 7e d8 3f
       0.07376791241320631 0.38271775875165687
0004c0 75 22 0c a5 2b 0e be bf 62 36 ed be c9 58 c2 bf
       -0.1174037244746929 -0.1433345968493312
0004d0 3e 89 73 dd 86 8c b3 3f cb a0 03 e8 d1 61 d1 bf
       0.07636301905180162 -0.2715954557193185
0004e0 86 af eb be cd 2e c3 bf 1d e0 e3 d1 ed 90 d2 3f
       -0.14986583540246218 0.2900957631786712
0004f0 c0 64 ef 83 df 7d bf 3f 07 7e bd 03 fd ea ab bf
       0.1230144211871389 -0.05452719374329367
000500 72 ae 5a 74 17 c2 c7 3f 28 63 54 79 d1 79 c6 3f
       0.18561070615156755 0.17559259819315653
000510 b0 68 24 e9 e2 8e e1 3f ca d7 b9 c4 1a 9e c5 3f
       0.5486921838339835 0.16888746839293695
000520 a9 79 3e ac d7 51 d0 bf 90 66 93 8b fb d9 98 bf
       -0.25499526806552325 -0.024269037622480172
000530 9d 57 1c 76 9f 21 c4 bf 17 d6 bb e4 97 54 90 3f
       -0.1572760893547497 0.015947697959708487
000540 bb 94 2e 16 bc ba da 3f 8a d7 63 60 93 1c d4 bf
       0.41764738241392835 -0.314244121676318
000550 b3 96 5f 8b b7 a2 c9 3f f8 68 64 71 0b c9 b0 bf
       0.2002782278570315 -0.06556769865384016
000560 3e 28 dd 82 2c 35 c0 3f f4 b4 5e c9 5c fb a6 3f
       0.12662273778761518 0.044886493283550793
000570 9e 0e 69 69 5d 88 d7 3f bf ee 4d 54 70 6a de 3f
       0.3676980523489223 0.4752465079579728
000580 21 38 c9 1e 60 f0 c4 3f f5 15 10 81 e2 26 dc bf
       0.16358567717765118 -0.43987333873550877
000590 ed 39 ce 5e 0e 6b ba 3f e4 8b a8 71 f4 c7 c2 bf
       0.10319604696835656 -0.14672713803983506
0005a0 f2 c2 24 63 6b a9 da bf 42 a1 aa e0 4b dc ac bf
       -0.41659054452888633 -0.05636822812567967
0005b0 db 6a dc 9c 33 68 6a 3f 11 33 68 2d 19 90 dc 3f
       0.003223515325669763 0.4462950652530689
0005c0 71 5b 9f 7d 5d 27 df 3f 68 cc d1 bb fd 59 7c 3f
       0.48677766101666636 0.006921759745739477
0005d0 fe 38 d4 97 df 5c c3 3f 4a 07 bd 47 d2 cd 9e bf
       0.15127177155995492 -0.030082021359027857
0005e0 37 a5 0f 80 3d 2d c3 bf b8 40 e4 82 d3 f3 c0 3f
       -0.14981812241539114 0.132440985595627
0005f0 ec 0e c1 c0 9f d5 d2 3f 8e ef e5 54 e7 46 df bf
       0.29428857635160344 -0.48870261469687015
000600 11 01 45 65 3a 6d bd 3f 4e 10 f9 1d 41 1c b0 bf
       0.1149479386558634 -0.06293112737427117
000610 f7 61 df 46 9e aa bd bf a4 f9 5a 33 ae af c8 3f
       -0.11588467817580993 0.19286134250246534
000620 4f 8b 72 c5 76 2a ce bf 2a 4b 1e 8a a2 07 9c 3f
       -0.23567089692104523 0.027372874908517954
000630 20 df b0 0f cc b3 b1 bf b1 e5 c7 f4 9a 7c d9 bf
       -0.0691497362430451 -0.39823030380611174
000640 c4 25 9b 14 4b df b4 bf 08 c2 8c b8 99 46 cb bf
       -0.08153218510701438 -0.21309205542776533
000650 20 0d 99 eb 75 17 cc 3f 63 70 99 bc f9 ab d3 bf
       0.2194659614925536 -0.3073715535917982
000660 7c 68 fc 52 d5 5a e4 bf 9e e0 33 6a 53 32 cb 3f
       -0.6360880490131104 0.21247332273174363
000670 0e 02 e2 ed dc a5 bc bf 2f 48 ed 23 5f 2e b3 3f
       -0.11190586860357873 0.07492632510300788
000680 4a c9 35 1c 85 f3 bc 3f 53 cf 2e 16 98 b6 d4 bf
       0.11309081972811899 -0.32364465872091336
000690 a4 b8 cb f1 dd 20 cb bf fb 80 88 91 9d 93 ac 3f
       -0.21194052034792776 0.05581371690300504
0006a0 39 23 84 6d 2b 99 c2 3f c6 0a a3 98 7b 9d ac bf
       0.14529936645001287 -0.05588899839633181
0006b0 37 02 73 26 c1 55 d1 bf 8d b9 43 4a 34 d8 ce bf
       -0.2708590388756735 -0.2409730303401826
0006c0 08 13 e2 47 fc b1 c1 bf 85 e5 94 61 95 86 b4 3f
       -0.13824418554227003 0.0801785815464396
0006d0 f5 98 77 3e 2b e4 b3 bf af 16 e0 27 eb bc dd bf
       -0.07770033145024853 -0.4646556748778989
0006e0 24 8b 16 e5 cd a1 a2 bf 27 54 6d 90 92 75 b0 bf
       -0.03639071866498103 -0.06429401422549628
0006f0 19 f9 91 74 02 f4 e1 3f 16 3e 95 a6 3b a2 c2 bf
       0.5610363270532474 -0.14557595857557776
000700 9b 35 85 ac d3 7b bc bf 2e 4c d3 9b b8 ff cc 3f
       -0.11126444780275906 0.22655398949299993
000710 68 67 60 7f f9 df d3 bf a7 d2 fd ca 0d 34 d4 bf
       -0.3105453246986287 -0.3156771166170906
000720 23 9c f9 14 4e d0 b1 3f 4f 9b 65 86 83 d3 d1 3f
       0.06958473217092424 0.27853477596948023
000730 f0 7a 16 de 1d de bd bf 9c a6 b0 f6 26 59 dd 3f
       -0.11667048141542202 0.45856641856026115
000740 71 91 63 78 41 44 e0 3f d3 13 45 71 38 c1 cb bf
       0.5083319999071546 -0.21683412104371644
000750 a7 6c bf b9 43 fd d6 3f fa 6c 00 d1 3e e9 ad bf
       0.3592080415671241 -0.05842014600076513
000760 e8 80 6c 75 9d 82 cd bf f1 02 43 c4 9e 40 dd 3f
       -0.23054855569444688 0.45706910291850905
000770 5d b6 30 93 4c 75 e1 3f b0 cf 20 02 29 ef dd 3f
       0.5455687403497894 0.46772217948750505
000780 72 f7 c6 bd 9b 5a cb 3f 2a 0b d9 b6 9a cd c5 bf
       0.21370264784303178 -0.17033704689137014
000790 d4 fd 04 ad f5 7d b9 bf 6a 60 6e 5c f7 85 bb 3f
       -0.09957824205502358 0.10751291281337819
0007a0 97 98 3c 20 61 f6 ad bf 04 a5 36 2f 76 28 e0 3f
       -0.0585203506328053 0.5049391672265817
0007b0 35 12 44 88 01 8f d2 bf 32 f3 ef a1 79 e9 88 bf
       -0.28997839266984055 -0.012164068464693398
0007c0 b3 6d a3 db 0f 04 dd 3f cb 42 32 df e5 66 d0 bf
       0.45337292145787983 -0.2562803916598965
0007d0 0d a3 bd 33 1b d1 97 3f b7 7b 7b e7 51 97 c6 3f
       0.02325861457157701 0.17649291804170072
0007e0 c5 ea b9 cf 1e 7d db 3f 40 c6 0b 85 7d 19 b4 3f
       0.42951174054875835 0.0785139512843438
0007f0 61 14 f8 06 f2 ad cb 3f b7 3f 35 3b de e2 d4 bf
       0.21624589290891819 -0.32634692937881077

layers.2.bias f8 [20]
000000 37 e6 4b 13 d1 65 bc 3f e6 78 9f 63 28 bf b0 bf
       0.11092859955888278 -0.06541683609200141
000010 ed 0c e4 3d c2 b8 be 3f 40 c4 6a 32 61 00 c1 3f
       0.1200066948986664 0.1328240867783581
000020 36 8d 7c 10 36 e2 be 3f 44 a0 13 21 5f d7 ae bf
       0.1206392088175122 -0.06023690489547609
000030 fd 36 46 e8 38 ad c7 3f c9 84 21 9a bd 3c 9b 3f
       0.18497382489697847 0.026598894627004186
000040 81 e2 c8 c9 b1 29 b5 3f e8 b8 ff 5f aa 01 d4 3f
       0.08266745735535076 0.3126016557206541
000050 6f 01 76 87 75 26 a5 3f 28 63 a8 d7 1f d6 a0 bf
       0.04130904463363804 -0.0328836394075494
000060 35 8c 17 cd d4 34 a5 3f 8a dd 8e ca 62 3e d0 bf
       0.04141869548382041 -0.2538077333551533
000070 cd 5d d6 0a 4c 7d d7 bf 38 fa 08 9f de c6 c0 3f
       -0.3670225244363479 0.13106901898750478
000080 e5 6e e2 5e e5 58 a7 bf 66 71 79 99 09 ca a5 bf
       -0.045600097496586924 -0.042557048782984094
000090 52 9c ac b5 74 0e a4 bf a9 56 2d 32 24 98 a1 3f
       -0.03917278974250195 0.03436387169373962

layers.3.weight f8 [20, 20]
000000 3c c3 13 a0 8c fa c8 bf 18 1c 30 c2 b1 df da 3f
       -0.1951461583735411 0.41990322078385267
000010 0b 11 0f 5b 9c 69 e5 bf d5 13 8f 6b 61 86 d5 bf
       -0.669141939019512 -0.33632693771170113
000020 15 f4 0b 0f 26 2e c3 3f 63 1a 0d 84 6c 68 d6 bf
       0.14984584555341543 -0.3501235284387915
000030 61 f4 fc ec aa 38 d2 3f 96 3e f2 7e cf 9e a8 bf
       0.28470872062081837 -0.04808662819516234
000040 df 3a fa ba 0c 8e d6 3f 8c 7d 24 e7 85 c3 b1 bf
       0.3524200273467794 -0.06938969510200915
000050 f1 58 da bf b4 83 cc 3f 3a 3c 16 fb 14 1b c0 bf
       0.22276934974497167 -0.12582647571659483
000060 66 00 ce ea f3 af e3 3f 25 e2 8e a9 0f 09 db 3f
       0.6152286134747669 0.42242805059825833
000070 18 64 6e f2 a6 00 ca bf 94 c8 03 1f 33 9e c2 3f
       -0.203144901632897 0.14545287145989916
000080 06 bb 09 ae 9b e2 ca 3f 27 05 fc ce d8 b4 cc 3f
       0.21004053113889415 0.2242690096536901
000090 14 97 11 99 6f 14 d8 bf f1 3e 64 16 4d 91 c4 bf
       -0.3762473101436268 -0.1606842383703149
0000a0 bc de 41 c3 60 e7 c9 bf 78 90 23 62 26 28 e0 3f
       -0.20237359556243983 0.5049011151100009
0000b0 61 6a 33 8e 83 f7 d7 3f 83 54 a5 c7 00 f2 a1 bf
       0.37448204886246655 -0.03504946171839498
0000c0 9d 6b 27 fa a0 1e d1 bf 4b 6d b2 d3 9d 21 96 3f
       -0.26749443463421035 0.021612611814459098
0000d0 50 90 6f 8d 3e 7d c0 bf 55 1d fa 4d b4 9d 90 3f
       -0.12882215410275188 0.01622659421857738
0000e0 03 a9 2e c2 e9 a2 a3 3f 06 af 57 69 00 1f d5 bf
       0.03835230346096987 -0.3300171879516117
0000f0 0a 59 3d d3 a8 18 b6 bf 2e 20 13 9a 58 49 c4 bf
       -0.08631377370088358 -0.15848834536723316
000100 3e 35 dd f6 3b a3 cf bf 79 07 59 f8 84 04 b7 bf
       -0.24716901353751014 -0.08991271079233155
000110 66 1d f1 3e e4 02 ab 3f 74 0e 91 87 81 22 da bf
       0.05275643604596318 -0.408356077565464
000120 4d 93 4e 8d ae 92 d8 bf 3b d4 60 93 a0 23 d8 3f
       -0.3839527492476023 0.37717451469808666
000130 0c 30 c7 9b bf e7 cf 3f 10 01 25 28 3a ee b8 3f
       0.24925990206099902 0.0973850582131528
000140 7c c5 9d 2b ee 3f cc 3f d5 da 13 2a 78 8c c9 bf
       0.220700999543208 -0.19959928564613585
000150 8d a0 83 d0 03 14 bc 3f 19 69 98 96 d0 f7 c4 bf
       0.1096804031436724 -0.1638127074555278
000160 d2 0e 62 1f 4f 73 d9 3f 7a eb 1b e1 23 c4 98 3f
       0.39766290726423137 0.024185715307776225
000170 30 b8 e7 59 d4 72 da bf f5 d7 f8 55 92 e0 c1 3f
       -0.41325863628196924 0.13966588209012767
000180 13 78 6e ca 4a 87 d3 bf 15 f9 ca 81 c9 2f d7 3f
       -0.3051325775976476 0.3622916953571729
000190 5a 29 2f 05 19 41 c2 3f a7 71 53 e1 6f aa 5c bf
       0.14261162522445653 -0.0017496197299840895
0001a0 89 b1 a5 74 c2 be d6 bf 37 15 3b 68 08 c3 d3 3f
       -0.3553930415280538 0.3087788598898728
0001b0 ff 8e e6 66 8c 3f db 3f af d6 94 8b 12 14 c1 3f
       0.42575368927849405 0.1334250623273667
0001c0 be 05 52 5c 16 76 d5 3f 27 98 83 17 09 06 ba bf
       0.33533247962631296 -0.10165459465096714
0001d0 62 3d b1 b3 b7 2d d1 bf 58 97 43 b7 f3 53 5f bf
       -0.268415379982761 -0.0019121055639117115
0001e0 44 bc aa 86 8a 2b b1 3f dc 80 75 8c 6d 6d c7 3f
       0.0670706347252557 0.18302697523450362
0001f0 dc 26 0e 16 c0 a8 b5 3f b5 9f fb b2 be 2c b4 bf
       0.08460617578944202 -0.07880775327396246
000200 18 1a 6c 86 65 e5 d1 bf eb 23 8a 7e 86 49 cd 3f
       -0.2796262562482368 0.22880631617252276
000210 27 fc 63 cb df 7c db bf 00 9c 75 91 fd f4 c3 bf
       -0.4294967161403655 -0.15591401674757321
000220 b0 6f 58 b6 95 70 ac 3f e3 23 8f f9 f3 44 da bf
       0.0555464539613405 -0.4104585587597837
000230 59 5d b6 e4 36 94 d1 bf b0 27 d1 04 49 ae b4 3f
       -0.2746712907332572 0.08078438155749157
000240 c3 f1 cf 8b b6 02 e1 bf 35 d7 80 7d 43 1f d6 3f
       -0.5315811854084632 0.3456581807725912
000250 7c 59 5a 60 d2 2e e8 3f ba 13 65 f8 e7 10 d4 bf
       0.7557155496495365 -0.31353186852748716
000260 2a 90 00 f1 6d a6 d1 3f 41 c6 c2 08 9f 28 d3 bf
       0.27578304801341125 -0.299354322963243
000270 8b d1 d6 c2 c1 30 b5 bf ed ef d7 53 81 40 cf bf
       -0.08277522093596283 -0.2441560420410264
000280 23 25 57 13 7a dd d2 3f 2a cf 59 e6 1f bf cc bf
       0.2947678746100612 -0.2245826601753092
000290 81 52 ad ae ea 93 ce 3f a3 3c 32 97 2d 2d b4 3f
       0.23888906029846527 0.07881436291994474
0002a0 0b de 33 3d b2 d1 d3 bf f5 cd 7b e9 ae 45 dc 3f
       -0.30967384316269947 0.4417531280625718
0002b0 c8 3e 50 75 f7 c0 80 3f 98 e7 61 54 37 f1 a8 3f
       0.008180554645178431 0.04871533303317149
0002c0 6c 82 49 ef 8c 95 bd bf ce 4f f7 80 b8 78 d8 3f
       -0.11556320993396135 0.3823682078775591
0002d0 cc fc 64 f7 53 98 9d 3f a1 01 6d 5b b3 3e 99 3f
       0.02890139768100823 0.02465324636000477
0002e0 ec ac 0b 3d ba 5e d6 bf 3b 6e c4 47 13 aa d5 bf
       -0.3495317073963651 -0.33850557335401604
0002f0 9c 1b 52 ac a7 28 d3 bf 2b ca 98 82 22 9b bd bf
       -0.2993563826388994 -0.11564841926955498
000300 8a 15 12 5b d2 00 d0 3f aa 3a 6f e3 ed c2 d1 bf
       0.2500501527177553 -0.2775225373306208
000310 ee 10 9c 7f d8 0a 5f 3f 84 88 55 ca 5a bb b9 bf
       0.0018946756594582742 -0.10051505508229935
000320 fb ff 64 7d c5 31 ae bf e7 17 57 ac b1 9f bd 3f
       -0.0589734759873863 0.11571798760914441
000330 a9 4f d5 96 e3 75 cd bf 9e d3 ea 20 a3 eb 83 bf
       -0.23016018738655689 -0.009726786081367508
000340 55 16 e0 7e 4f 46 d1 3f 2f 07 01 e5 2d f1 d5 bf
       0.26991641416711804 -0.3428454147689192
000350 e3 a3 fe 8c 47 f4 b1 3f c0 e9 57 64 fa 9c cc bf
       0.07013365928891306 -0.2235405912359294
000360 b3 da 40 cb a8 09 a3 3f c3 ca 63 b3 be b4 c6 bf
       0.03718307000274503 -0.17739089736240574
000370 5a 66 12 90 6b e8 c0 bf 06 81 04 03 d4 5f c9 3f
       -0.13209290060767637 0.19823694369643635
000380 59 58 f6 62 3a e0 d1 bf 2e 61 4e 9d 98 f0 d5 3f
       -0.2793107954433985 0.342809823626811
000390 f6 61 82 86 26 5a 6b bf df 8f 23 fa 12 6c 8e bf
       -0.0033388855409379704 -0.01485457254279504
0003a0 f2 6e 2f 28 4d 03 d3 3f fe 13 2e 0a 63 6f d5 bf
       0.29707650112480544 -0.33492351526393793
0003b0 fe c3 56 38 fb 0d cf bf af 96 6d 83 8d 30 be 3f
       -0.24261417628216003 0.1179283567303979
0003c0 4a e9 c4 b2 a5 ad b5 bf 32 50 9d 5b 60 79 d7 bf
       -0.08468089689714478 -0.36678322741250036
0003d0 a5 3c 70 cc 6b b1 b8 3f da d3 6e 90 5f d4 b3 bf
       0.09645723096058363 -0.07745930935091341
0003e0 b7 8f 3f cd 20 ec a4 3f 83 a6 8a 15 78 3c c2 bf
       0.04086401467773675 -0.1424703698333368
0003f0 a9 86 91 80 e5 b1 c1 3f f3 f2 8e b9 7f d6 5b 3f
       0.13824147012478719 0.0016990897477022176
000400 05 23 1e e8 0b 8f c0 bf be db c1 16 ba ff dd 3f
       -0.12936543306229722 0.46873333189381217
000410 43 a8 49 8b cc 30 c3 bf 9e 58 03 17 80 6a a4 bf
       -0.1499267273059691 -0.039875033196652185
000420 21 07 ec cd 6f 71 e6 3f 60 d5 22 91 8e d6 b9 bf
       0.7013472577966448 -0.10093012851105732
000430 64 58 87 a0 57 0d c4 bf 94 e7 b6 ae 7c 90 b7 bf
       -0.1566571744758135 -0.09204844727983491
000440 7b 77 5e 3c ae c2 ca bf 81 8a 5b f0 c6 1e bb 3f
       -0.20906618068414304 0.10593837135415109
000450 70 28 d0 c2 c7 a0 c8 3f 09 96 03 79 ef 03 87 3f
       0.19240662586554746 0.011237975006632277
000460 a5 17 43 6c c6 45 bc bf b5 20 2c 8b 41 3b d2 3f
       -0.11043968337170769 0.28486670104076534
000470 48 2e 1b d4 37 93 c2 3f 98 9b ac c8 88 b0 af 3f
       0.14511773926493476 0.061893724914902026
000480 ae 42 28 ac 56 bc d8 3f ac 48 35 0f 4a 1a b8 bf
       0.3864952737067523 -0.09415114280025944
000490 a9 30 9e fa df 39 c9 3f e2 ee 31 ef 33 05 b7 3f
       0.19707870232776273 0.0899231394741338
0004a0 e7 93 7a a0 65 fa a7 bf b9 b1 b9 fb 97 eb dd bf
       -0.046832252349567054 -0.46750449736171223
0004b0 9b 18 3f 89 1f 2c c3 3f 84 07 4e 52 9e e5 c8 3f
       0.1497840328358436 0.19450739878453416
0004c0 95 a4 7d f7 f3 39 c7 bf 08 12 6a f1 91 88 b5 3f
       -0.1814560850573669 0.08411514419464805
0004d0 ff 5a fb 00 a7 5c bb 3f 0f bf 03 0a 4b 20 ba 3f
       0.10688251279803394 0.10205525393007185
0004e0 27 69 63 d0 13 65 d1 3f bc ff e5 d1 c2 16 b1 3f
       0.27179427481100266 0.06675355553124879
0004f0 66 a7 51 3e ea dd c0 bf b8 f5 57 c7 be 15 cc 3f
       -0.13177230875890728 0.21941361173223384
000500 54 91 d3 31 ad 9f d5 3f df bc 58 7d c2 38 d3 bf
       0.3378708826624195 -0.3003393386924937
000510 37 09 ee a6 b1 20 bd bf ba 44 46 61 f7 11 c9 3f
       -0.11378012013850457 0.1958607888196065
000520 c0 52 81 26 a5 78 b7 3f b6 90 4f 63 31 2e c3 bf
       0.0916846484190712 -0.14984719609413383
000530 60 9a de ba 1d 9f c7 bf 32 29 7f eb 3c 1d aa 3f
       -0.18454333900918396 0.05100431799617623
000540 dd 03 43 27 59 1a b7 bf b4 3a 1a 02 f8 70 d3 3f
       -0.09024579247035498 0.303770067265684
000550 9c ee 15 d8 04 e6 d5 bf e4 76 54 3a ef fa b5 3f
       -0.3421642408572809 0.08586020635672359
000560 35 5f 5f f8 65 7c da bf 31 4c 9a 2e 37 d0 8d 3f
       -0.4138426709664487 0.01455729590387564
000570 cd 06 04 c1 fc 02 d9 3f 39 ac 2d 1c 7b 6e ce bf
       0.39080733155433905 -0.23774660945795903
000580 50 82 af 18 ab 33 d2 bf 29 df 4d 1e 8f aa cb 3f
       -0.2844035855360163 0.2161425493211422
000590 dd a8 08 b7 f9 9c c3 bf 6a d8 f9 b8 4e 8c af 3f
       -0.15322801053236548 0.061617336349556975
0005a0 0c cf 4f d6 75 cd d7 3f 6d d0 ce 1a ee ca c2 3f
       0.3719153015983785 0.14681793507554933
0005b0 3e c6 66 c0 1b 18 af 3f 07 61 f2 80 67 30 c1 bf
       0.06073080752993264 -0.13428968235235336
0005c0 0d 96 eb dd 46 45 77 bf 95 f9 d7 60 bb 23 b3 bf
       -0.0056813019025177105 -0.07476397623393034
0005d0 d5 e9 dc 15 95 87 bf 3f ba fb d5 98 b9 78 d2 3f
       0.12316257270587212 0.28861846852663187
0005e0 8d 96 ef c6 d2 a6 d6 3f e8 f5 f7 bb 3a 48 a8 3f
       0.3539320891125975 0.04742606682337308
0005f0 ec 82 90 8b e6 11 ce bf 55 ec 17 da 45 3c d9 bf
       -0.23492128195450535 -0.39430376337231127
000600 1e 47 72 82 e5 b8 dc 3f 08 fa 9e b8 39 80 d5 bf
       0.4487851880922892 -0.3359512618007163
000610 cd 2a da a4 83 bf c0 3f 50 7f ab 52 45 07 db 3f
       0.13084455060410108 0.4223187739680627
000620 69 2d b4 64 7e c8 c9 3f 41 7d 05 c9 a9 bc dc bf
       0.20143108288935288 -0.4490150893306755
000630 51 71 90 a5 22 33 d6 bf 1d ab ff 31 7d 69 cf 3f
       -0.34687105339414354 0.24540677014678006
000640 59 09 59 65 b4 0a a6 3f 39 f9 d4 4d b9 f6 c0 3f
       0.04305042016177891 0.1325294141806326
000650 9c af 4e 77 50 10 ce bf 0b c0 69 1e 84 21 83 3f
       -0.2348728735499862 0.009341270616658922
000660 a1 13 14 4d 03 30 d2 bf b6 22 3b af 8d 51 ba 3f
       -0.28418047454061407 0.10280690696812197
000670 3b b4 f7 b4 93 96 ba 3f 21 27 d1 91 50 f2 cd bf
       0.10386012237695834 -0.23395735855074754
000680 32 a1 97 fb 71 db ae 3f af cd 96 bd c7 9e d2 3f
       0.06026798435397253 0.2909411765533276
000690 03 67 e5 0a c5 f2 9c 3f 0d 35 ab 82 75 43 e0 3f
       0.02826984290127311 0.5082347442745757
0006a0 83 73 81 b7 49 f5 c4 bf 80 04 fb 72 fd 34 a1 bf
       -0.16373559437024818 -0.033607406888685354
0006b0 88 45 98 01 f6 a8 df 3f c7 e0 2e fb 77 64 cf 3f
       0.49468755870574244 0.2452535606842103
0006c0 24 80 55 56 3b 45 8b bf 16 ff fc 31 40 fe ac bf
       -0.013315642902568987 -0.05662727937897054
0006d0 18 84 e3 d3 36 18 b8 bf f6 85 d2 1b 2b 7f b5 bf
       -0.09411947892250827 -0.08397168568856003
0006e0 84 e1 e0 13 f7 81 b0 bf 52 6c 69 8c 20 dd b8 3f
       -0.06448311076463226 0.0971241324236172
0006f0 ed 15 00 ae 0b bf d3 3f 0a e8 21 42 90 d9 b2 bf
       0.3085354994985597 -0.07363225569307033
000700 8c 4b 1a ef 49 d9 62 3f 3e db da 95 02 b8 d1 3f
       0.0023008770011271936 0.2768560851504168
000710 6a 09 5e 29 18 d3 58 bf 3e 2d dd 19 27 6e a7 bf
       -0.0015151725724256945 -0.0457622736999732
000720 a9 1e 87 2f f7 ff e2 3f 49 a8 8b 42 2e 7b e3 3f
       0.5937457969930239 0.6087867068974983
000730 5d f0 d5 bb fe f4 b8 3f e4 a8 15 90 1b 8b de bf
       0.09748832784492963 -0.4772404582096341
000740 c9 20 84 5c 71 15 9e bf 8a 49 d7 6d e9 ef d6 3f
       -0.029378672858940278 0.3583930561700518
000750 15 30 e8 71 c6 06 c7 bf ee 70 88 1d 86 b7 b1 bf
       -0.1798942619501537 -0.06920660229701855
000760 16 99 03 f6 2d 9d d0 bf ad ee 03 b9 d3 7e a0 bf
       -0.25959347748575234 -0.03221761353958406
000770 50 fa 32 0a cb ab cb bf 1a 89 d4 02 14 00 ba 3f
       -0.21618021009449473 0.10156369275185675
000780 3d ca 1c b8 ac 2d 78 3f ee 80 ed ed ff 40 d3 3f
       0.00590293377335854 0.30084226832515426
000790 9d 84 69 ec c1 a7 b1 bf 4f 83 a9 63 b5 93 b4 bf
       -0.06896602651387913 -0.08037885363729667
0007a0 eb 21 f0 5f c1 fd bb bf 1c 8b a5 d4 74 a3 d5 3f
       -0.10934074966656453 0.33810158506655497
0007b0 f3 1f ae 01 5c 4f a5 bf 89 9e c3 c1 72 dd d2 3f
       -0.04162108917722653 0.29476612970618327
0007c0 6e 9f 91 8b ea 49 c5 bf ec d1 b0 c6 26 a8 c8 3f
       -0.1663182431686851 0.19263157560057154
0007d0 ac 9f bf 1a be 86 ba bf 6b 95 fe 5c 14 54 ad 3f
       -0.10361850884475982 0.05728210101305361
0007e0 02 88 3c 5e be 95 c1 bf 41 8c bc 94 23 67 b4 3f
       -0.1373823127879064 0.07969877606642319
0007f0 18 48 b7 20 15 f8 be 3f ae 06 6b fa c5 e5 da bf
       0.12097293900231454 -0.4202742524613353

layers.3.bias f8 [20]
000000 75 41 1f 4a 46 ee bf bf 7b 8d 25 22 4b 2b be bf
       -0.1247295313799038 -0.11784810622844148
000010 21 53 be ca 5e 72 a5 bf 88 c7 03 da 35 5b c4 bf
       -0.041888200997311616 -0.15903351922275655
000020 ea 39 71 aa e1 95 ce 3f ec da d2 1b e4 40 c2 3f
       0.23894902059915007 0.14260531767441564
000030 02 79 46 97 4a 3a bc bf c8 5c d0 f7 81 89 b4 3f
       -0.1102644557308601 0.08022320079941203
000040 13 aa fe e3 ee 87 ab 3f 2e 3e 36 d4 f9 19 83 3f
       0.053771462756533016 0.009326888836567706
000050 d9 d7 06 64 b7 ba a7 bf 55 27 ed a4 ce 55 c2 3f
       -0.04634640785245354 0.14324362805410354
000060 80 bf d5 75 d5 99 c2 bf a0 54 17 f7 c2 0f 99 bf
       -0.14531963590297536 -0.024474188166852984
000070 57 f0 5a 07 26 39 c5 3f f9 9d 4b 1e 1b eb c8 bf
       0.1658065353311737 -0.19467486361757816
000080 6b 70 cf cb 4b 4a c3 bf c6 d1 90 f6 ce c3 a2 3f
       -0.15070483638453722 0.036650149916031036
000090 fa 9a d6 7e 40 42 b4 3f 3b 8e 89 f4 ad 38 b4 bf
       0.07913592430723418 -0.07898986072682927
